…
[2026-05-29 14:00:00,034][10269] WARNING! It is generally recommended to enable Fixed KL loss (https://arxiv.org/pdf/1707.06347.pdf) for continuous action tasks to avoid potential numerical issues. I.e. set --kl_loss_coeff=0.1
[2026-05-29 14:00:00,034][10269] Setting fixed seed 0
[2026-05-29 14:00:00,041][10269] Using GPUs [0] for process 0 (actually maps to GPUs [0])
[2026-05-29 14:00:00,041][10269] Initializing actor-critic model on device cuda:0
[2026-05-29 14:00:00,056][10269] Created Actor Critic model with architecture:
[2026-05-29 14:00:00,056][10269] ActorCriticSeparateWeights(
  (obs_normalizer): ObservationNormalizer()
  (actor_encoder): QuadMultiEncoder(
    (self_encoder): Sequential(
      (0): Linear(in_features=24, out_features=256, bias=True)
      (1): Tanh()
      (2): Linear(in_features=256, out_features=256, bias=True)
      (3): Tanh()
    )
    (obstacle_encoder): Sequential(
      (0): Linear(in_features=9, out_features=256, bias=True)
      (1): Tanh()
      (2): Linear(in_features=256, out_features=256, bias=True)
      (3): Tanh()
    )
    (feed_forward): Sequential(
      (0): Linear(in_features=512, out_features=512, bias=True)
      (1): Tanh()
    )
  )
  (actor_core): ModelCoreIdentity()
  (critic_encoder): QuadMultiEncoder(
    (self_encoder): Sequential(
      (0): Linear(in_features=24, out_features=256, bias=True)
      (1): Tanh()
      (2): Linear(in_features=256, out_features=256, bias=True)
      (3): Tanh()
    )
    (obstacle_encoder): Sequential(
      (0): Linear(in_features=9, out_features=256, bias=True)
      (1): Tanh()
      (2): Linear(in_features=256, out_features=256, bias=True)
      (3): Tanh()
    )
    (feed_forward): Sequential(
      (0): Linear(in_features=512, out_features=512, bias=True)
      (1): Tanh()
    )
  )
  (critic_core): ModelCoreIdentity()
  (actor_decoder): MlpDecoder(
    (mlp): Identity()
  )
  (critic_decoder): MlpDecoder(
    (mlp): Identity()
  )
  (critic_linear): Linear(in_features=512, out_features=1, bias=True)
  (action_parameterization): ActionParameterizationContinuousNonAdaptiveStddev(
    (distribution_linear): Linear(in_features=512, out_features=4, bias=True)
  )
)
[2026-05-29 14:00:00,226][10269] Using optimizer <class 'torch.optim.adam.Adam'>
[2026-05-29 14:00:01,814][10269] No checkpoints found
[2026-05-29 14:00:01,814][10269] Did not load from checkpoint, starting from scratch!
[2026-05-29 14:00:01,814][10269] Initialized policy 0 weights for model version 0
[2026-05-29 14:00:01,815][10269] LearnerWorker_p0 finished initialization!
…
